model_weights.pth (torch, 148875 bytes, 8 tensors)

classifier.0.weight f4 [100, 200]
-0.043036453 -0.005911979 -0.0049871514 0.021082701 0.065106735 0.019576827 -0.060844988 -0.030666897
-0.07026967 -0.04167775 0.06873436 0.018526683 -0.055595625 0.04073574 -0.06441543 0.02475562
-0.014471226 -0.016185256 -0.011478834 0.055582855 0.05638297 -0.011336582 -0.01954756 -0.032973647
-0.05502777 0.033113215 0.060440127 0.019495152 0.06649216 -0.012590809 -0.011729799 -0.048745696
0.067317724 -0.05347833 0.014046524 -0.045381866 -0.017828498 -0.021209044 -0.067560725 -0.033544797
0.006249616 0.002669334 -0.027971184 0.06757585 0.039959203 0.03596491 -0.051312916 0.06280295
0.059445146 -0.027862523 0.038670596 0.02066176 0.04309037 -0.0010952946 0.052938435 0.02204013
-0.00042753425 0.009535342 0.062279444 0.05186508 0.050020136 -0.0627118 0.009588954 0.06968279
-0.039507423 0.029149333 -0.05760573 -0.0021562327 -0.06173331 0.058303423 0.06234702 -0.0701571
0.025581717 0.06695258 0.04532862 0.02489647 -0.053494994 -0.037863802 0.05658877 -0.032178648
0.029844873 0.010156899 0.024356825 -0.019257756 0.027010975 0.06885777 -0.051595546 -0.06916049
0.064684644 -0.06355815 -0.0693655 0.049135655 0.008321002 0.066819936 -0.04403325 -0.001953972
-0.020698916 -0.054766294 -0.062500946 0.031610355 0.025669293 0.017410234 0.06462325 -0.06367662
-0.067430936 -0.004671356 -0.008202036 -0.027350564 0.037495233 -0.04820154 -0.038269572 0.0031251493
0.033096336 0.028004814 -0.057667796 -0.028976716 0.0006224218 -0.01410315 -0.027447674 -0.043905042
0.022284357 0.06385159 -0.032747824 0.01333927 0.060605943 -0.063915804 -0.031313267 -0.03928828
0.03103201 -0.054134123 -0.028559186 0.0026436574 0.0015115676 0.032636672 0.05950792 -0.037956398
0.007280583 0.009853968 0.059117112 0.004889386 0.03668516 -0.04943403 0.037506897 0.06765339
0.055303283 0.0373189 0.015859907 -0.03374556 -0.07081952 -0.03420062 -0.053728934 -0.0010166983
-0.028842205 -0.050307404 0.05642161 0.061300278 0.06371006 0.03329387 0.009952191 -0.05188782
0.062070437 -0.0626088 -0.018851174 0.06660711 -0.00374642 -0.04899385 0.064471506 -0.0013025226
-0.025675647 -0.0014740591 0.0072907726 -0.057538692 0.05260054 0.026548583 -0.018423252 -0.0076165646
-0.045101468 -0.053617805 -2.1897773e-05 0.06919224 -0.035545766 0.03836025 -0.017199323 0.0012742338
0.02777522 0.059424717 -0.050585486 -0.019304823 -0.001614211 0.06695774 0.027513152 0.060721368
-0.008413828 -0.017965512 -0.035802513 -0.044443652 0.051200707 -0.07065693 0.053288806 0.06168165
-0.037815154 -0.0265513 -0.031309035 0.012431053 0.05489405 -0.01580517 0.05197747 0.055101298
-0.024091095 -0.007130866 0.040230732 -0.010293611 -0.02719009 -0.02549907 -0.062387414 0.04790393
-0.036103558 0.05041599 -0.012377159 0.05017091 0.052374445 0.0032183873 -0.06715941 0.031217275
-0.06109074 0.06324868 -0.06863307 -0.057004616 -0.0052964743 0.007921719 0.028603073 0.061692555
0.041402366 0.04962159 0.039465938 -0.04654726 0.049021058 -0.044935472 -0.079077914 0.020413995
-0.029957987 -0.0006434975 0.025768323 0.06779368 0.065990016 -0.027489547 -0.035225373 0.04934639
-0.06770763 0.02215682 -0.00075674395 0.056782063 0.017933222 -0.053742673 0.024451569 -0.030429779
00000000: fe46 30bd 46b9 c1bb 426b a3bb a1b5 ac3c
00000010: ae56 853d 955f a03c 9838 79bd 2539 fbbc
00000020: 8be9 8fbd 4ab6 2abd 9ac4 8c3d 45c5 973c
00000030: 3db8 63bd 85da 263d 3dec 83bd 4ccc ca3c
00000040: b918 6dbc f196 84bc b811 3cbc d9aa 633d
00000050: d4f1 663d 12bd 39bc 3422 a0bc 600f 07bd
00000060: cd64 61bd b9a1 073d 1190 773d 4cb4 9f3c
00000070: 0b2d 883d ae49 4ebc 582e 40bc 91a9 47bd
00000080: e0dd 893d 180c 5bbd 6423 663c 56e2 39bd
00000090: 120d 92bc 97be adbc 475d 8abd 4566 09bd
000000a0: 94c9 cc3b feef 2e3b d323 e5bc 3565 8a3d
000000b0: 43ac 233d f14f 133d 7e2d 52bd d59e 803d
000000c0: c17c 733d f23f e4bc 0f65 1e3d da42 a93c
000000d0: 877f 303d fd8f 8fba f9d5 583d 818d b43c
000000e0: ad26 e0b9 203a 1c3c bb18 7f3d 7a70 543d
000000f0: eae1 4c3d 0b6f 80bd fd1a 1d3c dab5 8e3d
00000100: 89d2 21bd 95ca ee3c fcf3 6bbd 954f 0dbb
00000110: 11dc 7cbd 92cf 6e3d 975f 7f3d 87ae 8fbd
00000120: c090 d13c 6f1e 893d 81aa 393d aff3 cb3c
00000130: 911d 5bbd 1317 1bbd a0c9 673d c2cd 03bd
00000140: 3c7d f43c 1f69 263c f787 c73c 71c2 9dbc
00000150: 1f46 dd3c 4d05 8d3d da55 53bd 04a4 8dbd
00000160: 6279 843d c62a 82bd 800f 8ebd 7842 493d
00000170: d054 083c e4d8 883d 365c 34bd 360e 00bb
00000180: c690 a9bc 9f52 60bd 7f00 80bd dc79 013d
00000190: 6948 d23c e89f 8e3c 3259 843d e368 82bd
000001a0: 3b19 8abd 2d12 99bb d561 06bc 4a0e e0bc
000001b0: 9a94 193d fa6e 45bd 8ec0 1cbd 4ecf 4c3b
000001c0: 0690 073d 5a6a e53c 1135 6cbd 9460 edbc
000001d0: 052a 233a e610 67bc f2d9 e0bc c6d5 33bd
000001e0: af8d b63c 9fc4 823d 9522 06bd f48c 5a3c
000001f0: f03d 783d 4ae6 82bd 5742 00bd bfec 20bd
00000200: d836 fe3c bebb 5dbd f4f4 e9bc 3641 2d3b
00000210: cb1f c63a 08ae 053d 94be 733d 2b78 1bbd
00000220: f591 ee3b 8a72 213c c924 723d 2437 a03b
00000230: 2e43 163d 567b 4abd d5a0 193d dc8d 8a3d
00000240: b285 623d b4db 183d a3ec 813c c938 0abd
00000250: d309 91bd f315 0cbd df12 5cbd bc42 85ba
00000260: 7d46 ecbc 230f 4ebd 591a 673d 0016 7b3d
00000270: 6c7a 823d 275f 083d 840e 233c 5388 54bd
00000280: 923d 7e3d 0b39 80bd c76d 9abc 4f69 883d
00000290: 7f86 75bb c6ad 48bd a309 843d 68b9 aaba
000002a0: bc55 d2bc 3735 c1ba 6fe7 ee3b b1ad 6bbd
000002b0: aa73 573d 6a7c d93c 5cec 96bc 6094 f9bb
000002c0: 51bc 38bd 589e 5bbd 1cb1 b7b7 a9b4 8d3d
000002d0: 7098 11bd a31f 1d3d 98e5 8cbc 3104 a73a
000002e0: dc88 e33c 5567 733d ba32 4fbd 2625 9ebc
000002f0: ef93 d3ba 2421 893d 4363 e13c f8b6 783d
00000300: 27da 09bc 692c 93bc a8a5 12bd 8c0a 36bd
00000310: d5b7 513d 95b4 90bd 5d45 5a3d e6a5 7c3d
00000320: 10e4 1abd 1d82 d9bc e73d 00bd 9eab 4b3c
00000330: 95d8 603d d879 81bc 54e6 543d e6b1 613d
00000340: b05a c5bc 0aaa e9bb fbc8 243d 89a6 28bc
00000350: c0bd debc 6de3 d0bc f289 7fbd e936 443d
00000360: 53e1 13bd ff80 4e3d 91c9 4abc 0380 4d3d
00000370: 9686 563d 94eb 523b df8a 89bd 5fbb ff3c
00000380: 493a 7abd 8688 813d 7f8f 8cbd ac7d 69bd
00000390: 0c8e adbb 19ca 013c fe50 ea3c 55b1 7c3d
000003a0: 8795 293d 0240 4b3d 09a7 213d 57a8 3ebd
000003b0: 4eca 483d 420e 38bd 9af3 a1bd 403b a73c
000003c0: 746a f5bc 63b0 28ba 1718 d33c 6ad7 8a3d
000003d0: c625 873d c231 e1bc 7b48 10bd 711f 4a3d
000003e0: 4caa 8abd 3882 b53c 3a60 46ba 4f94 683d
000003f0: b1e8 923c 4721 5cbd a84e c83c df47 f9bc

classifier.0.bias f4 [100]
-0.0043114442 0.00254313 0.010727857 0.039236635 -0.054653086 -0.021648668 -0.036668237 0.0061645503
0.030386034 -0.057773482 -0.030813312 -0.0086792465 -0.0022327919 -0.059831988 -0.0015969538 0.02788899
-0.0396883 -0.0051544616 -0.04092258 0.05397557 -0.027961027 -0.070346475 -0.06765379 0.024840996
-0.014519485 -0.056239434 -0.045058608 -0.04383739 -0.04812033 0.04602229 0.056168552 -0.031925183
-0.0361869 0.050671175 -0.01928939 0.047522973 0.00379247 0.034622923 0.005599421 -0.06262331
-0.004037533 -0.002586903 -0.047833677 -0.035485916 0.032998245 -0.047791567 -0.033034276 -0.05355532
0.0445653 -0.0023877558 0.026646866 0.022622172 0.07765915 0.056215797 0.04041948 0.03906488
-0.043166757 0.073012404 -0.05541246 0.060350407 0.011155793 0.039365903 0.071598016 0.029759016
-0.0142474035 0.073493354 -0.041809175 0.009469614 0.057399616 0.011242704 0.073605336 -0.044323403
0.04162875 -0.033626933 0.063726075 -0.0042912755 0.0038612094 0.03180967 -0.049860377 0.044556588
-0.015119774 0.012378207 0.025677072 -0.02690991 -0.0056682313 -0.0051270826 0.07018287 -0.054125853
-0.05792992 -0.05925312 0.013624333 0.041020207 0.015861943 -0.030440452 0.0020821444 0.044883173
-0.044018738 0.036576703 0.019213948 0.011354484
00000000: 0447 8dbb a4aa 263b e5c3 2f3c 98b6 203d
00000010: eadb 5fbd 8c58 b1bc 6f31 16bd ffff c93b
00000020: 22ec f83c e3a3 6cbd 336c fcbc 6633 0ebc
00000030: 0854 12bb 6312 75bd e150 d1ba 7377 e43c
00000040: 3390 22bd c2e6 a8bb 6f9e 27bd 7d15 5d3d
00000050: 860e e5bc d011 90bd 128e 8abd 587f cb3c
00000060: 22e3 6dbc 525b 66bd 608f 38bd d68e 33bd
00000070: d319 45bd de81 3c3d ff10 663d fbc3 02bd
00000080: b738 14bd 948c 4f3d c804 9ebc 73a7 423d
00000090: 178b 783b c4d0 0d3d 597b b73b a640 80bd
000000a0: 484d 84bb 0889 29bb 3fed 43bd ae59 11bd
000000b0: 2b29 073d 17c1 43bd f34e 07bd d35c 5bbd
000000c0: 1b8a 363d e57b 1cbb 874a da3c 2252 b93c
000000d0: c30b 9f3d 8942 663d e68e 253d 7f02 203d
000000e0: a0cf 30bd 8787 953d 2df8 62bd fd31 773d
000000f0: cac6 363c 243e 213d fba1 923d 2ec9 f33c
00000100: f16d 69bc af83 963d 1940 2bbd 7126 1b3c
00000110: dc1b 6b3d 5133 383c 65be 963d 758c 35bd
00000120: e882 2a3d 65bc 09bd d182 823d d49d 8cbb
00000130: 580c 7d3b db4a 023d 653a 4cbd f880 363d
00000140: eeb8 77bc f7cd 4a3c b958 d23c 2c72 dcbc
00000150: 92bc b9bb 1601 a8bb 09bc 8f3d 12b3 5dbd
00000160: ec47 6dbd 66b3 72bd 9838 5f3c ce04 283d
00000170: e8f0 813c 415e f9bc 9674 083b 6bd7 373d
00000180: fe4c 34bd 74d1 153d 9266 9d3c 2808 3a3c

classifier.2.weight f4 [100, 100]
0.03293543 0.059791997 -0.09427751 0.071557924 0.03162743 0.069230765 0.024845986 -0.015237699
-0.08224912 -0.06589605 0.035531238 -0.09917291 -0.070993364 -0.044275418 -0.061497476 0.045788776
-0.096133105 -0.09036865 -0.09076576 0.07540876 -0.051571473 -0.015565419 -0.022283044 0.039520796
-0.04892119 0.020746877 -0.06712844 -0.09491126 0.047493424 -0.040985774 -0.022974148 -0.0745708
0.018796189 -0.025106644 0.017542388 -0.026441526 -0.011689199 -0.024759322 -0.03576808 -0.042337306
-0.069047645 -0.089473374 -0.05124308 -0.056795392 -0.02943284 0.039509308 -0.0027114241 0.012429014
0.09133102 0.053316683 -0.0860467 -0.021163957 0.0018954482 0.034081653 -0.07779901 -0.025983661
-0.044549335 0.08709363 -0.08622332 -0.044091187 -0.023876334 0.07651899 -0.075609505 0.08112182
0.010578877 0.03069401 -0.004439994 -0.027597077 -0.05205657 0.0024498668 0.064861 0.022094151
0.08359641 -0.029192876 0.00034560543 -0.015007352 -0.0030656431 -0.09939385 -0.01864612 -0.041152127
0.026847042 0.03698359 0.07276087 -0.008714626 0.0750115 0.04678573 -0.026910193 0.039453853
-0.06920603 -0.052740496 -0.045885533 -0.09643579 0.051635094 -0.09155536 0.0027805103 0.054394495
-0.07087624 -0.009653064 0.06583995 -0.021362267 0.034161028 0.08766472 -0.06194388 -0.03972059
0.06320268 0.07821055 0.038218163 0.054819852 -0.056048077 -0.04065099 0.035526298 -0.020215882
-0.010912216 -0.015351135 0.09926362 -0.019248258 -0.0062143 -0.09011136 0.017590769 0.042621356
0.031053167 0.06962956 -0.091758355 0.08043408 -0.027259657 -0.030756146 0.05524285 0.0790982
0.0055484367 0.06874746 -0.096075915 0.07348288 0.019095384 0.060556926 0.044028364 0.03320325
-0.033251446 -0.09314946 -0.039149273 -0.07767988 0.028727096 0.068052225 -0.052513387 0.026232013
0.024624709 0.08929712 0.017136617 -0.021247718 0.07020776 -0.028478265 0.12048914 0.035270542
-0.010598799 -0.022394642 0.012240587 -0.04715124 -0.06432575 -0.07894044 -0.006186113 0.003322918
0.07342137 0.049519576 -0.09520406 -0.03828171 0.0410466 0.10476129 -0.10821842 -0.08274444
0.07574333 0.069953844 0.01012576 0.0794073 0.08717461 -0.02594342 0.03030127 -0.029357452
0.033399723 -0.04588337 0.085947454 -0.083045326 0.06580304 -0.08044437 0.017376196 -0.033430524
-0.005436807 0.05064056 -0.029759709 -0.005323531 0.08783181 -0.01659801 0.050357506 -0.086481616
0.023009948 -0.035307135 0.06865118 0.050309822 0.052132946 -0.0920619 -0.076764956 -0.08450477
0.07989001 -0.065347254 -0.047820304 0.06963735 -0.0017793465 -0.004055657 -0.0896236 0.031873927
-0.08691226 -0.05842255 -0.0045797285 0.046458896 -0.059133176 0.06858202 0.0021965976 0.09382099
-0.041317422 -0.040567037 -0.009108998 -0.016876683 -0.02998868 -0.024370385 -0.083742626 -0.071843974
-0.009569261 -0.089661956 0.021337342 0.04860065 -9.603452e-05 -0.011650518 0.027779432 0.063628666
-0.035479397 -0.06031987 -0.013920237 -0.09560818 -0.04196035 0.08561008 -0.019299733 -0.06992892
0.013151238 -0.09411821 0.0044957655 0.014245129 0.04634379 0.057664208 -0.09280657 0.014149017
0.08050501 0.07701428 -0.0061819446 0.024571827 -0.059964783 -0.018227322 -0.029408813 0.040258758
00000000: 4de7 063d 74e8 743d 9114 c1bd f68c 923d
00000010: c48b 013d dcc8 8d3d cf89 cb3c 8ba7 79bc
00000020: 3a72 a8bd 82f4 86bd 3489 113d 2b1b cbbd
00000030: f864 91bd 245a 35bd c7e4 7bbd 038d 3b3d
00000040: 6fe1 c4bd 3313 b9bd 66e3 b9bd e86f 9a3d
00000050: 9c3c 53bd 1906 7fbc ee8a b6bc 8fe0 213d
00000060: 9661 48bd 5bf5 a93c a37a 89bd d660 c2bd
00000070: 7788 423d b3e0 27bd 4834 bcbc 93b8 98bd
00000080: 77fa 993c 73ac cdbc 0eb5 8f3c e69b d8bc
00000090: 0e84 3fbc 10d4 cabc 8d81 12bd e269 2dbd
000000a0: da68 8dbd d13d b7bd 44e4 51bd 49a2 68bd
000000b0: 241d f1bc 83d4 213d 26b2 31bb 10a3 4b3c
000000c0: c20b bb3d 9862 5a3d 4139 b0bd 0960 adbc
000000d0: b070 f83a 3499 0b3d 1655 9fbd b0db d4bc
000000e0: 5d79 36bd 255e b23d da95 b0bd f698 34bd
000000f0: 4d98 c3bc fdb5 9c3d 28d9 9abd 3223 a63d
00000100: 0753 2d3c 0172 fb3c 5f7d 91bb 4413 e2bc
00000110: 4539 55bd f28d 203b d8d5 843d cbfe b43c
00000120: 9834 ab3d e625 efbc 6032 b539 66e1 75bc
00000130: f5e8 48bb 018f cbbd bfbf 98bc 228f 28bd
00000140: 54ee db3c 1b7c 173d a703 953d cac7 0ebc
00000150: a19f 993d 65a2 3f3d c472 dcbc 5d9a 213d
00000160: e4bb 8dbd 6b06 58bd 78f2 3bbd 2180 c5bd
00000170: 527f 533d 6081 bbbd 3939 363b c3cc 5e3d
00000180: 9027 91bd e327 1ebc 19d7 863d ecff aebc
00000190: 6fec 0b3d 9089 b33d deb8 7dbd 0fb2 22bd
000001a0: 6870 813d da2c a03d a68a 1c3d c88a 603d
000001b0: ab92 65bd a781 26bd 0684 113d c79b a5bc
000001c0: 27c9 32bc 5483 7bbc ba4a cb3d 86ae 9dbc
000001d0: 54a1 cbbb 4e8c b8bd 841a 903c bb93 2e3d
000001e0: 3663 fe3c f199 8e3d ceeb bbbd 9fba a43d
000001f0: a54f dfbc 50f4 fbbc 5446 623d 3dfe a13d
00000200: a9cf b53b 78cb 8c3d 73c3 c4bd 317e 963d
00000210: ec6d 9c3c 8a0a 783d 1657 343d 2200 083d
00000220: ab32 08bd 25c5 bebd fd5a 20bd a116 9fbd
00000230: 1655 eb3c f75e 8b3d 4718 57bd 85e4 d63c
00000240: c2b9 c93c 69e1 b63d 1762 8c3c b20f aebc
00000250: 16c9 8f3d 404b e9bc 03c3 f63d d877 103d
00000260: 96a6 2dbc f874 b7bc be8c 483c a921 41bd
00000270: 38bd 83bd 87ab a1bd e1b4 cabb 50c5 593b
00000280: f15d 963d 0ad5 4a3d 59fa c2bd 48cd 1cbd
00000290: 7b20 283d 168d d63d 9ea1 ddbd eb75 a9bd
000002a0: 521f 9b3d f643 8f3d 84e6 253c 4ba0 a23d
000002b0: 9a88 b23d 4c87 d4bc 5e3a f83c 0a7f f0bc
000002c0: 26ce 083d 33f0 3bbd 3805 b03d ab13 aabd
000002d0: bfc3 863d 05c0 a4bd 8658 8e3c 72ee 08bd
000002e0: 3e27 b2bb 7a6c 4f3d a2ca f3bc 0471 aebb
000002f0: 2ae1 b33d 8df8 87bc ac43 4e3d 461d b1bd
00000300: 5c7f bc3c 379e 10bd fd98 8c3d ac11 4e3d
00000310: 5b89 553d f38a bcbd f236 9dbd d610 adbd
00000320: 609d a33d c8d4 85bd 39df 43bd 079e 8e3d
00000330: f638 e9ba 51e5 84bb 948c b7bd 3c8e 023d
00000340: 0eff b1bd 7c4c 6fbd 8c11 96bb af4b 3e3d
00000350: a135 72bd bb74 8c3d cbf4 0f3b 3825 c03d
00000360: 753c 29bd 9f29 26bd e83d 15bc f840 8abc
00000370: d2aa f5bc 67a4 c7bc 4181 abbd ef22 93bd
00000380: 64c8 1cbc b0a0 b7bd a6cb ae3c 7a11 473d
00000390: 2466 c9b8 d0e1 3ebc b191 e33c bf4f 823d
000003a0: d852 11bd f811 77bd b511 64bc 39ce c3bd
000003b0: 9ede 2bbd 5654 af3d 791a 9ebc e536 8fbd
000003c0: 4a78 573c 0cc1 c0bd 3751 933b 6764 693c
000003d0: fcd2 3d3d 4e31 6c3d 5f11 bebd 47d1 673c
000003e0: d0df a43d aab9 9d3d e991 cabb db4a c93c
000003f0: a29d 75bd 7751 95bc c0ea f0bc 5ee6 243d

classifier.2.bias f4 [100]
0.001648233 0.057381466 0.009809342 -0.07982617 -0.0836552 0.087904856 -0.048418894 -0.06528733
0.053468324 0.012078276 0.08260934 -0.067799516 -0.061837535 0.10873398 0.06198449 -0.0023510072
0.025940483 0.09628131 0.04635732 -0.08828029 -0.06633156 -0.038579576 -0.081998505 -0.023893042
0.05155567 0.057214063 -0.09938377 0.06445602 -0.05773955 0.024152646 -0.073339514 -0.002486414
0.008141207 0.10057688 -0.038229726 0.02248128 -0.07029628 -0.047962356 0.0059817433 0.04417949
-0.040889606 -0.023195798 -0.04904223 0.07934713 0.02376253 -0.07267584 0.11829623 0.008619732
-0.053340714 0.0894099 -0.038145073 0.02358938 -0.012460151 -0.03025273 -0.028507628 0.050360158
0.05361099 0.07352988 0.0071929013 0.021798998 0.08192026 -0.021104472 0.016211083 -0.025433727
0.025499599 -0.039771568 -0.0078101563 0.07659734 -0.089212924 0.005687167 -0.076003306 -0.058650117
-0.02201998 0.03627826 0.0017933096 0.018580915 0.099710114 0.0917674 0.019520912 0.125127
-0.09941895 -0.072208926 0.055297855 -0.0019116718 0.00370761 -0.007957422 0.0724663 0.019170335
-0.03458974 -0.047144927 0.07421007 0.024302745 0.0124639375 -0.09545329 -0.037572887 -0.037800256
-0.09688657 -0.017810415 0.039784044 0.034127142
00000000: 8609 d83a d408 6b3d 5db7 203c e77b a3bd
00000010: 6b53 abbd 7607 b43d e452 46bd 5db5 85bd
00000020: 9a01 5b3d f6e3 453c 162f a93d 79da 8abd
00000030: 5b49 7dbd ecaf de3d 73e3 7d3d 5b13 1abb
00000040: 2381 d43c 232f c53d 2ce1 3d3d 4ccc b4bd
00000050: d7d8 87bd 9e05 1ebd d5ee a7bd 57bb c3bc
00000060: 0a2c 533d 4b59 6a3d b889 cbbd 8501 843d
00000070: 4e80 6cbd c5db c53c 0733 96bd 1bf3 22bb
00000080: b262 053c 40fb cd3d c696 1cbd a92a b83c
00000090: 7ff7 8fbd 2d74 44bd 8002 c43b 8ef5 343d
000000a0: dc7b 27bd 1d05 bebc 81e0 48bd c080 a23d
000000b0: a3a9 c23c 12d7 94bd 4b45 f23d c739 0d3c
000000c0: cb7b 5abd 8a1c b73d 023e 1cbd 843e c13c
000000d0: a925 4cbc 93d4 f7bc d488 e9bc 7446 4e3d
000000e0: 3397 5b3d d596 963d 6eb2 eb3b d093 b23c
000000f0: cfc5 a73d 49e3 acbc 1bcd 843c 645a d0bc
00000100: 89e4 d03c 83e7 22bd 57ec ffbb 11df 9c3d
00000110: 44b5 b6bd 6a5b ba3b 9fa7 9bbd 1b3b 70bd
00000120: 3f63 b4bc 8398 143d 7c0d eb3a 0137 983c
00000130: d134 cc3d 8cf0 bb3d 52ea 9f3c 4b21 003e
00000140: 2a9c cbbd 46e2 93bd 0180 623d 1091 faba
00000150: 60fb 723b d95f 02bc 3669 943d 1b0b 9d3c
00000160: f9ad 0dbd 0a1b 41bd 73fb 973d 8d16 c73c
00000170: 8b35 4c3c 047d c3bd 07e6 19bd 71d4 1abd
00000180: 776c c6bd 26e7 91bc 98f4 223d e7c8 0b3d

classifier.4.weight f4 [50, 100]
-0.030767085 0.047424402 8.499067e-05 0.09432846 -0.0704882 -0.040464632 -0.0062618693 0.085248314
0.043830596 -0.08702725 0.024205144 -0.031839088 0.091871105 -0.06927623 0.015789162 -0.015056808
0.050480355 0.031813025 -0.06360202 -0.0018975508 -0.041926898 0.03303231 0.04243388 0.065914415
-0.07751155 -0.013878123 0.0026578754 0.008625451 0.0358696 0.024451237 0.034872506 -0.09960399
-0.07171809 -0.04359967 -0.06804318 -0.09937593 0.01721558 0.041419573 -0.05138057 -0.09733559
-0.034880906 0.054505203 0.007428505 -0.021855664 0.06370738 0.05934514 0.026663642 0.08096457
0.03417759 0.08864241 0.094380945 -0.021426894 -0.03777987 -0.08856011 0.0031769197 0.076345086
0.0027751923 0.056404013 0.003354275 0.08642518 0.08577015 0.058366414 0.025709048 0.091402404
-0.0864575 -0.07280075 0.057330646 -0.0070015425 0.07655979 0.080252916 0.020551763 -0.021665774
0.08497157 -0.095914446 -0.09954197 -0.09651363 0.002189644 0.09102576 -0.012353687 0.029381258
-0.099971004 0.0583108 -0.029193353 -0.05821502 -0.0796366 0.022980789 -0.098242946 -0.056116942
-0.08863015 -0.073080085 -0.0034092155 0.060206547 -0.023086322 0.062369708 0.07781338 -0.100958936
0.022470402 0.0027949149 0.06649004 -0.018644765 0.05839295 0.06519452 -0.0711235 0.0741476
-0.016112015 -0.09516928 -0.0912843 -0.05236494 -0.056888357 -0.08380401 0.09375172 0.023949146
0.023923574 -0.018428093 0.08205447 0.013319779 0.07926446 -0.05020043 0.039539073 0.007489245
0.003146205 0.068842836 -0.014591336 -0.07657034 -0.070320934 0.005084051 -0.06502501 0.028052507
-0.027467744 0.034377992 0.04069498 -0.029499497 -0.07922263 -0.0021918477 0.038852684 0.0420804
-0.012386161 0.042958483 0.025558101 -0.039605517 -0.076709524 0.0036093725 0.07034116 0.02287644
-0.06282728 0.018887311 -0.03917547 0.0972563 0.002715694 -0.008260111 -0.048961464 0.043777086
-0.06480227 0.08709042 -0.07664446 0.054417428 -0.0051136697 -0.008800767 -0.03339191 -0.039639696
-0.092224374 -0.022685772 0.097832896 -0.045201555 0.05331982 -0.03389174 0.08783237 -0.057508666
-0.07627289 -0.029790225 0.05081471 0.033943158 0.029661557 0.04238119 -0.042799078 -0.00083785265
-0.02206064 0.071362115 -0.0796577 -0.06589304 -0.06268093 -0.015643945 -0.08558858 0.016702529
-0.06213298 -0.040864654 -0.030904418 -0.003356702 -0.06951926 0.07524382 0.02507824 -0.044035044
0.046877682 0.014698538 0.09031545 -0.05179856 -0.0054778825 0.0001880467 -0.09381457 0.036920603
0.016771255 0.08607248 -0.06587768 0.0990091 -0.061787535 0.002517661 0.08817873 -0.099620834
0.052576095 -0.053223085 -0.022309417 0.018945126 0.04965692 0.03169209 0.033687923 -0.0025644095
-0.06364071 -0.02014253 0.014543035 -0.081151925 -0.0459885 0.01872451 0.076014616 0.08856537
0.09601736 -0.041539483 -0.055745628 0.09208062 -0.010762364 -0.03372297 -0.060764473 0.02033177
-0.051488657 0.088513665 -0.011116818 0.009813732 -0.032390524 0.05011601 -0.08926073 -0.069635466
0.043620735 -0.038966026 0.055155274 -0.051810905 0.07174402 0.008342488 -0.08863471 -0.006590395
-0.082502015 -0.028107189 0.00084501965 -0.019939546 -0.07818135 0.032010783 0.07260107 -0.075181104
00000000: 410b fcbc 1740 423d 053d b238 482f c13d
00000010: 1e5c 90bd 3ebe 25bd 5e30 cdbb ab96 ae3d
00000020: b687 333d 583b b2bd de49 c63c b469 02bd
00000030: eb26 bc3d b2e0 8dbd 4658 813c d4b0 76bc
00000040: 7dc4 4e3d 604e 023d c741 82bd 3db7 f8ba
00000050: 8abb 2bbd e34c 073d 26cf 2d3d 23fe 863d
00000060: 60be 9ebd 1161 63bc c02f 2e3b c351 0d3c
00000070: 00ec 123d f64d c83c 79d6 0e3d 2dfd cbbd
00000080: efe0 92bd 9195 32bd 395a 8bbd 9c85 cbbd
00000090: b007 8d3c 92a7 293d 6f74 52bd e257 c7bd
000000a0: 48df 0ebd d940 5f3d d16a f33b a60a b3bc
000000b0: 0479 823d e413 733d b66d da3c c1d0 a53d
000000c0: cdfd 0b3d 278a b53d cc4a c13d 7487 afbc
000000d0: 11bf 1abd 015f b5bd de33 503b d05a 9c3d
000000e0: 00e0 353b e507 673d 65d3 5b3b afff b03d
000000f0: 43a8 af3d 9f11 6f3d c89b d23c 2f31 bb3d
00000100: a110 b1bd 8f18 95bd 8ad3 6a3d 326d e5bb
00000110: 61cb 9c3d a45b a43d 2c5c a83c 6c7c b1bc
00000120: 9305 ae3d cb6e c4bd a9dc cbbd f0a8 c5bd
00000130: 2180 0f3b b76b ba3d 1e67 4abc f7b0 f03c
00000140: 99bd ccbd 4ed7 6e3d e626 efbc df72 6ebd
00000150: 8418 a3bd 3542 bc3c 9933 c9bd e1da 65bd
00000160: b983 b5bd 03ab 95bd 256d 5fbb 249b 763d
00000170: 871f bdbc 6177 7f3d 9f5c 9f3d 8fc3 cebd
00000180: d913 b83c e42a 373b ee2b 883d e8bc 98bc
00000190: 722d 6f3d b484 853d 33a9 91bd b2da 973d
000001a0: 58fd 83bc 1de8 c2bd 43f3 babd 9f7c 56bd
000001b0: c403 69bd 70a1 abbd e700 c03d 0031 c43c
000001c0: 5ffb c33c 83f6 96bc 2d0c a83d 343b 5a3c
000001d0: 6855 a23d f79e 4dbd b9f3 213d 5768 f53b
000001e0: 9030 4e3b 79fd 8c3d 8010 6fbc e9d0 9cbd
000001f0: 6c04 90bd 1c98 a63b d52b 85bd 5fce e53c
00000200: 0904 e1bc f0cf 0c3d c8af 263d eea8 f1bc
00000210: 793f a2bd 1aa5 0fbb fe23 1f3d 7f5c 2c3d
00000220: 53ef 4abc 3cf5 2f3d 395f d13c 6539 22bd
00000230: e219 9dbd 398b 6c3b 070f 903d 5f67 bb3c
00000240: 97ab 80bd 90b9 9a3c 7576 20bd 502e c73d
00000250: c9f9 313b 6b55 07bc d18b 48bd 9a4f 333d
00000260: 0db7 84bd 765c b23d c5f7 9cbd cfe4 5e3d
00000270: 9290 a7bb 1831 10bc f5c5 08bd 3c5d 22bd
00000280: 22e0 bcbd 83d7 b9bc 9d5c c83d 4425 39bd
00000290: e265 5a3d 11d2 0abd 75e1 b33d 358e 6bbd
000002a0: f634 9cbd a10a f4bc 1623 503d fb07 0b3d
000002b0: cbfc f23c e697 2d3d 164e 2fbd 57a3 5bba
000002c0: 84b8 b4bc 4d26 923d 9423 a3bd eef2 86bd
000002d0: dc5e 80bd bb27 80bc 1149 afbd bed3 883c
000002e0: 277f 7ebd b261 27bd 432b fdbc 1dfc 5bbb
000002f0: 1d60 8ebd 6f19 9a3d e270 cd3c 175e 34bd
00000300: d002 403d 23d2 703c 4ff7 b83d ba2a 54bd
00000310: cf7f b3bb 672e 4539 da21 c0bd 0f3a 173d
00000320: df63 893c c546 b03d e1ea 86bd 48c5 ca3d
00000330: ed14 7dbd 58ff 243b 0d97 b43d 0206 ccbd
00000340: 085a 573d 7300 5abd 3dc2 b6bc cf32 9b3c
00000350: 0e65 4b3d 91cf 013d 59fc 093d a70f 28bb
00000360: 1056 82bd f201 a5bc e945 6e3c fb32 a6bd
00000370: 705e 3cbd 2564 993c 8dad 9b3d c361 b53d
00000380: c0a4 c43d 4e25 2abd 8755 64bd c494 bc3d
00000390: a054 30bc 1921 0abd 2be4 78bd d08e a63c
000003a0: c5e5 52bd a746 b53d 5023 36bc c6c9 203c
000003b0: edab 04bd 7246 4d3d 54ce b6bd 0a9d 8ebd
000003c0: a8ab 323d d79a 1fbd 7fea 613d ac37 54bd
000003d0: 87ee 923d eeae 083c 1d86 b5bd 3df4 d7bb
000003e0: d1f6 a8bd 0c41 e6bc 4f84 5d3a 4258 a3bc
000003f0: 8b1d a0bd bd1d 033d dfaf 943d 8df8 99bd

classifier.4.bias f4 [50]
-0.08250128 -0.037849266 -0.011459485 0.03602566 0.014353085 -0.027073085 0.18529756 -0.05620263
-0.033710107 -0.09481317 -0.036380924 0.062508866 -0.07432585 0.12799852 -0.035714865 0.014963455
-0.09593388 -0.0442842 -0.09186707 -0.08919579 0.1087041 0.10006707 -0.0891835 -0.04573337
0.05597956 0.04650428 -0.025245069 0.14669788 0.05932741 0.06127519 0.019108165 0.07851065
0.15280093 0.17055981 0.005389255 0.06788358 0.05894936 0.06847936 -0.0995917 -0.10272504
-0.07134245 0.0025920246 0.036473833 0.04508059 0.07384523 0.093709245 -0.03442636 -0.088973574
-0.016796194 0.16225332
00000000: 6ef6 a8bd d507 1bbd 90c0 3bbc a48f 133d
00000010: 3429 6b3c 60c8 ddbc a5be 3d3e bb34 66bd
00000020: 9c13 0abd 682d c2bd 2a04 15bd a604 803d
00000030: 2738 98bd 0b12 033e c049 12bd 4729 753c
00000040: fb78 c4bd 5963 35bd cd24 bcbd 48ac b6bd
00000050: 41a0 de3d f7ef cc3d d7a5 b6bd ea52 3bbd
00000060: d34a 653d 467b 3e3d bfce cebc f837 163e
00000070: 4c01 733d b2fb 7a3d ba88 9c3c 31ca a03d
00000080: d977 1c3e 3ba7 2e3e 5998 b03b 8c06 8b3d
00000090: e274 713d e83e 8c3d bcf6 cbbd 8161 d2bd
000000a0: fe1b 92bd f5de 293b 9665 153d 6da6 383d
000000b0: 2b3c 973d a2ea bf3d a802 0dbd c737 b6bd
000000c0: 2c98 89bc bc25 263e

classifier.6.weight f4 [24, 50]
-0.13319315 0.021078771 0.015908848 -0.023748858 -0.009422007 0.16530968 0.32469416 -0.0054628947
-0.035461277 0.12147595 0.052192822 0.1152238 0.054246258 0.07329232 -0.109582014 -0.030406795
0.081065126 -0.033281952 0.03386381 0.06556599 -0.080689006 -0.021780096 -0.11273639 -0.07120743
-0.13430074 0.12754315 0.15087584 0.13790135 0.057450432 -0.016304094 -0.084619775 -0.011969787
0.24320614 0.1425991 0.023173736 -0.01479146 0.19960952 -0.018741837 -0.07764753 -0.09629323
0.12970637 0.059647683 0.037664734 -0.08735082 0.10202574 0.2697534 0.014690044 -0.058322962
0.14040093 0.16464204 -0.075509675 -0.08513803 -0.10311819 0.09008906 0.093455605 0.083201125
0.3047917 0.079421625 -0.13701299 -0.08534977 -0.04067791 0.091644146 -0.03091824 0.09837364
0.024114192 -0.08259087 -0.11631804 -0.027127566 0.031105824 -0.06467005 0.18602288 0.20850101
-0.009116679 0.06441668 0.06452843 -0.039135296 0.069378674 0.23299453 0.054332227 -0.01328668
0.07970027 0.15218876 0.0859177 0.15076928 -0.060381982 0.06272854 0.107245244 0.19714998
-0.014531107 -0.10148165 -0.07420673 -0.092427164 -0.1364642 -0.08917886 -0.018472051 0.33106354
0.08538238 -0.13963835 0.006921778 0.16453941 0.10225784 0.13486578 0.039148185 -0.045429755
-0.041480705 -0.009305806 -0.1079565 -0.10579529 0.11375168 0.018081218 -0.041894272 0.007963915
0.059576016 -0.0671614 0.11595465 0.12370587 0.029292703 -0.114623435 0.13135509 0.014275058
-0.1205056 -0.112804875 -0.030318215 -0.12927146 0.05719105 0.08318164 0.08765781 0.09404664
0.067268446 0.018580018 -0.03777956 -0.049303684 0.0017274561 -0.019497862 -0.12350081 0.13846977
-0.13844095 -0.03135401 -0.008902684 -0.13585101 -0.13389207 0.036194906 0.04822641 0.034502313
0.13248678 0.032000855 -0.010746052 0.018044502 0.104058966 0.038652323 0.10582132 0.13797282
0.04439711 -0.10724355 -0.08708281 0.12912256 0.103177726 0.065635286 -0.041994635 0.10404459
-0.1157661 -0.061195645 -0.105427995 -0.07436487 0.05179949 -0.1308176 -0.1102468 -0.11616834
0.06659818 0.09381008 -0.10579345 -0.04710492 0.092631504 0.08410578 0.067959376 0.04600301
0.013411737 -0.08053341 0.09958568 -0.124426566 0.13286726 -0.035090405 -0.040695973 0.108918115
0.116900094 0.0036889506 -0.12370037 -0.07801163 0.13643 -0.03716887 0.08362149 0.039766103
-0.013449395 -0.055303175 -0.014496163 0.06866089 0.09557339 0.07590618 -0.050853938 -0.13129523
-0.09344978 -0.13660575 -0.0754256 -0.10681647 -0.111423664 -0.032744024 0.04272087 0.12553506
-0.14003512 -0.114794955 -0.005391042 -0.036731683 -0.09986423 -0.0484821 -0.089525655 0.092918076
-0.122458875 -0.03504577 0.14088504 -0.06659241 0.008725531 -0.09454332 -0.08827762 0.11828013
0.045369457 0.008049427 -0.024646001 0.09502746 -0.022264825 0.091340125 0.10520722 -0.00842261
-0.02025645 -0.13497534 0.10606566 -0.11225662 0.008050687 0.09081441 0.024924142 0.06434361
0.07454111 -0.04402282 -0.061333526 -0.068093 -0.077606104 -0.017547673 0.005435098 -0.07940535
-0.1049875 0.116954975 0.108377986 -0.075198986 0.020161271 0.032325983 0.12454886 -0.12033338
00000000: c963 08be 63ad ac3c 4653 823c f78c c2bc
00000010: c35e 1abc f146 293e 503e a63e 1502 b3bb
00000020: d83f 11bd 62c8 f83d 24c8 553d 75fa eb3d
00000030: 5331 5e3d 491a 963d 896c e0bd ac17 f9bc
00000040: 7905 a63d a852 08bd c7b4 0a3d 7647 863d
00000050: 4740 a5bd 2c6c b2bc 56e2 e6bd 33d5 91bd
00000060: 2286 09be ac9a 023e 327f 1a3e 0336 0d3e
00000070: 2551 6b3d 2a90 85bc 224d adbd ed1c 44bc
00000080: 080b 793e 8005 123e d9d6 bd3c e157 72bc
00000090: 7066 4c3e 7b88 99bc ab05 9fbd 6335 c5bd
000000a0: bfd1 043e 2151 743d 5646 1a3d fde4 b2bd
000000b0: dff2 d03d 1e1d 8a3e 83ae 703c 0fe4 6ebd
000000c0: 43c5 0f3e ec97 283e d1a4 9abd d95c aebd
000000d0: a12f d3bd 9d80 b83d a765 bf3d 5a65 aa3d
000000e0: a80d 9c3e cea7 a23d 224d 0cbe dccb aebd
000000f0: e19d 26bd edaf bb3d 4048 fdbc 1e78 c93d
00000100: 208b c53c 6725 a9bd 2738 eebd a13a debc
00000110: a4d1 fe3c bb71 84bd c87c 3e3e 4a81 553e
00000120: 205e 15bc e4ec 833d 7b27 843d 554c 20bd
00000130: 6816 8e3d 1e96 6e3e 788b 5e3d 60b0 59bc
00000140: e539 a33d 5fd7 1b3e 9ef5 af3d 4363 1a3e
00000150: 1953 77bd d277 803d 65a3 db3d afe1 493e
00000160: e113 6ebc 9cd5 cfbd b3f9 97bd 744a bdbd
00000170: 45bd 0bbe 68a3 b6bd b352 97bc 2981 a93e
00000180: f5dc ae3d 5bfd 0ebe 15d0 e23b 057d 283e
00000190: 8f6c d13d 411a 0a3e d959 203d 8d14 3abd
000001a0: ace7 29bd 6177 18bc 4c18 ddbd 33ab d8bd
000001b0: a4f6 e83d 101f 943c 5499 2bbd 157b 023c
000001c0: fb05 743d eb8b 89bd a279 ed3d 8159 fd3d
000001d0: 40f7 ef3c b1bf eabd f381 063e efe1 693c
000001e0: a4cb f6bd 3e06 e7bd e85d f8bc bd5f 04be
000001f0: 2a41 6a3d 235b aa3d f085 b33d 869b c03d
00000200: 0ac4 893d 1f35 983c bdbe 1abd a9f2 49bd
00000210: cf6b e23a fbb9 9fbc feed fcbd 05cb 0d3e
00000220: 77c3 0dbe 106d 00bd 90dc 11bc 871c 0bbe
00000230: 011b 09be 1c41 143d 0e89 453d 4c52 0d3d
00000240: 9daa 073e 5413 033d 3510 30bc 10d2 933c
00000250: de1c d53d e651 1e3d d9b8 d83d bf48 0d3e
00000260: bed9 353d 82a2 dbbd 7958 b2bd b438 043e
00000270: d84e d33d cb6b 863d 9102 2cbd 5415 d53d
00000280: c716 edbd 49a8 7abd a2ea d7bd 9c4c 98bd
00000290: b42b 543d 0df5 05be 13c9 e1bd abe9 edbd
000002a0: a064 883d 801f c03d 3caa d8bd 17f1 40bd
000002b0: 96b5 bd3d a73f ac3d 492e 8b3d a76d 3c3d
000002c0: e7bc 5b3c b3ee a4bd 94f3 cb3d 5bd3 febd
000002d0: 5b0e 083e f5ba 0fbd d2b0 26bd 7610 df3d
000002e0: 5169 ef3d 52c2 713b 9f56 fdbd 90c4 9fbd
000002f0: 4eb4 0b3e 633e 18bd be41 ab3d c8e1 223d
00000300: da5a 5cbc 9585 62bd 5181 6dbc 159e 8c3d
00000310: fbbb c33d b374 9b3d 384c 50bd 4272 06be
00000320: 9962 bfbd 61e2 0bbe bd78 9abd 98c2 dabd
00000330: 1732 e4bd 991e 06bd 14fc 2e3d 438c 003e
00000340: 5e65 0fbe 9e19 ebbd 57a7 b0bb f673 16bd
00000350: 9e85 ccbd 2b95 46bd 3a59 b7bd d54b be3d
00000360: b8cb fabd 278c 0fbd 2b44 103e 9a61 88bd
00000370: 88f5 0e3c ee9f c1bd e6ca b4bd da3c f23d
00000380: 53d5 393d bee1 033c 69e6 c9bc c29d c23d
00000390: b964 b6bc 8810 bb3d e276 d73d fdfe 09bc
000003a0: dbf0 a5bc fa36 0abe f438 d93d cce6 e5bd
000003b0: 07e7 033c e8fc b93d b72d cc3c 95c6 833d
000003c0: 02a9 983d 4651 34bd dd38 7bbd 5874 8bbd
000003d0: f3ef 9ebd 23c0 8fbc e818 b23b 469f a2bd
000003e0: b003 d7bd 1786 ef3d 47f5 dd3d ed01 9abd
000003f0: 4029 a53c 4068 043d 7913 ff3d 5971 f6bd

classifier.6.bias f4 [24]
0.41325733 0.67897654 0.084080525 0.01196872 -0.032517027 -0.027571231 -0.13382952 -0.10728861
0.08143055 0.1049163 -0.06781865 -0.07822304 -0.058424294 -0.14543974 -0.037881885 0.16251907
-0.05638555 0.07823789 -0.11375421 0.03504754 0.06016584 -0.17324151 -0.11341338 -0.11117309
00000000: 7796 d33e 68d1 2d3f 6932 ac3d 7318 443c
00000010: 9330 05bd 10dd e1bc 9b0a 09be 21ba dbbd
00000020: 0fc5 a63d 5bde d63d 81e4 8abd 6733 a0bd
00000030: 504e 6fbd 28ee 14be 092a 1bbd 666b 263e
00000040: 89f4 66bd 303b a03d f8f7 e8bd 028e 0f3d
00000050: 7570 763d 3966 31be 4645 e8bd b8ae e3bd
